model_final.pt (torch, 595888 bytes, 10 tensors)

embedding.weight f4 [21, 64]
0	0x00000000	0.0
1	0x00000000	0.0
2	0x00000000	0.0
3	0x00000000	0.0
4	0x00000000	0.0
5	0x00000000	0.0
6	0x00000000	0.0
7	0x00000000	0.0
8	0x00000000	0.0
9	0x00000000	0.0
10	0x00000000	0.0
11	0x00000000	0.0
12	0x00000000	0.0
13	0x00000000	0.0
14	0x00000000	0.0
15	0x00000000	0.0
16	0x00000000	0.0
17	0x00000000	0.0
18	0x00000000	0.0
19	0x00000000	0.0
20	0x00000000	0.0
21	0x00000000	0.0
22	0x00000000	0.0
23	0x00000000	0.0
24	0x00000000	0.0
25	0x00000000	0.0
26	0x00000000	0.0
27	0x00000000	0.0
28	0x00000000	0.0
29	0x00000000	0.0
30	0x00000000	0.0
31	0x00000000	0.0
32	0x00000000	0.0
33	0x00000000	0.0
34	0x00000000	0.0
35	0x00000000	0.0
36	0x00000000	0.0
37	0x00000000	0.0
38	0x00000000	0.0
39	0x00000000	0.0
40	0x00000000	0.0
41	0x00000000	0.0
42	0x00000000	0.0
43	0x00000000	0.0
44	0x00000000	0.0
45	0x00000000	0.0
46	0x00000000	0.0
47	0x00000000	0.0
48	0x00000000	0.0
49	0x00000000	0.0
50	0x00000000	0.0
51	0x00000000	0.0
52	0x00000000	0.0
53	0x00000000	0.0
54	0x00000000	0.0
55	0x00000000	0.0
56	0x00000000	0.0
57	0x00000000	0.0
58	0x00000000	0.0
59	0x00000000	0.0
60	0x00000000	0.0
61	0x00000000	0.0
62	0x00000000	0.0
63	0x00000000	0.0
64	0xbf438ad2	-0.763837
65	0xbf29a44a	-0.6626631
66	0xbff3d743	-1.9050068
67	0x3d23ba61	0.039972667
68	0xbf2ec72f	-0.6827268
69	0x3fa8dade	1.3191793
70	0x3cec2b25	0.028829167
71	0xbd0c8963	-0.03431071
72	0x3f8bf0f4	1.0932908
73	0x3eb91604	0.3614961
74	0x3e47a12c	0.19495076
75	0x3f208ad7	0.6271185
76	0x3ecbc94d	0.39802018
77	0x3f4663b1	0.77495867
78	0x3f6e20dc	0.9301889
79	0xbd85d17e	-0.06534098
80	0x3f5e24d6	0.8677496
81	0x3ea8880a	0.3291629
82	0x3f68751d	0.908037
83	0x3ed02d6e	0.4065966
84	0xc0160e97	-2.3446405
85	0xbff7b677	-1.9352559
86	0xbe8c86b9	-0.27446535
87	0x3e345a3b	0.17612545
88	0xc02c991a	-2.6968446
89	0x3efbfeac	0.49217737
90	0x3f2bc6a1	0.6709996
91	0x3fc93003	1.5717777
92	0x3eb9728c	0.36220205
93	0xbefaeba3	-0.49007902
94	0x3d093ff7	0.033508267
95	0xbfa4b736	-1.2868412
96	0xbf177a61	-0.5917111
97	0x3f93379d	1.1501347
98	0xbeee32e1	-0.46523193
99	0x3f618ac3	0.8810236
100	0x3f526156	0.8217977
101	0xbf08f18a	-0.5349356
102	0xbf4c1e0a	-0.79733336
103	0xbf8fbe63	-1.1229976
104	0xbe9898ed	-0.29804173
105	0x3fb2f2aa	1.3980305
106	0x3e5b2ef6	0.21404633
107	0x3e93abe2	0.28842074
108	0xbfcbab5d	-1.5911671
109	0xbf8d4dce	-1.1039369
110	0xbcae276e	-0.021259036
111	0x3db25bf2	0.087089434
112	0x3f14bd40	0.5810127
113	0x3f801e4d	1.0009247
114	0xbf723893	-0.94617575
115	0xbf7226f4	-0.9459069
116	0xbf038ab0	-0.51383495
117	0x3d06a31c	0.032870397
118	0xbf82dbfd	-1.0223385
119	0x3f64be26	0.89352643
120	0x3eda3bf4	0.42623866
121	0xbfdec786	-1.740464
122	0x4003c411	2.058842
123	0x3f094c0d	0.5363167
124	0xbf973389	-1.1812602
125	0xbf0cd3a5	-0.55010444
126	0x3ebcb80c	0.36859167
127	0x400d34a4	2.206338
128	0xbf78e7a0	-0.9722843
129	0x3ee681fc	0.45021045
130	0x3ea85778	0.32879233
131	0xbed10e27	-0.4083111
132	0x3cbfe914	0.02342657
133	0x3f9c03b9	1.2188636
134	0xbee1bc5d	-0.44089022
135	0x3f952ab7	1.165366
136	0x3fe3c688	1.7794962
137	0xbf9212d6	-1.1411998
138	0xbf864753	-1.0490516
139	0x3e86a4e2	0.2629767
140	0xbe2ce838	-0.1688546
141	0x3f0d1282	0.55106366
142	0x3fe705cc	1.8048644
143	0xbf8b85c0	-1.0900192
144	0x3e6cfc26	0.23143062
145	0x3f04a262	0.51810277
146	0xc056e7f5	-3.3579075
147	0xbf3949c3	-0.72378176
148	0x3fc1ebf4	1.5150132
149	0xbf8b658b	-1.0890363
150	0xbe3beae1	-0.18351318
151	0x3e66a4ec	0.2252385
152	0x3ecd9b1f	0.4015741
153	0x3f378baf	0.71697515
154	0x3e48627a	0.19568816
155	0x3b54df38	0.0032481682
156	0xbee800fd	-0.45313254
157	0x4012584f	2.28664
158	0x3fc75b7c	1.5574794
159	0x3fc18bce	1.512079
160	0xbfac306e	-1.345228
161	0x3ead2a73	0.3382145
162	0xbf959e3e	-1.1688917
163	0x3f41812b	0.7558772
164	0xbf959bf2	-1.1688216
165	0xbfb70a65	-1.4300047
166	0x3f7c0d1f	0.9845752
167	0xc0149c95	-2.322057
168	0xbd9a76bf	-0.0754218
169	0x3e831c32	0.2560745
170	0xbdcf1c68	-0.1011284
171	0x3eba375e	0.36370367
172	0x3ef60278	0.48048759
173	0x3f2670bd	0.65015775
174	0x3f0a6249	0.5405622
175	0xbeecff56	-0.46288556
176	0xc00d10e5	-2.2041562
177	0xbf9afffe	-1.2109373
178	0xbef895fd	-0.48551932
179	0xbfbaf29f	-1.4605292
180	0x3e26c511	0.16286112
181	0xbeb18166	-0.34669036
182	0xbd71b06e	-0.059006147
183	0x3f8b8d3f	1.090248
184	0x3eddf440	0.4335041
185	0xbb23884e	-0.002495307
186	0xbf90fcbd	-1.132713
187	0xbf4a4b5c	-0.7902124
188	0xbe5934fb	-0.21211617
189	0xbf9d8e2f	-1.2309016
190	0xbfbace02	-1.4594119
191	0xbf959df3	-1.1688827
192	0x3e0592e2	0.13044313
193	0xbea9bcf7	-0.3315198
194	0x3fd204ed	1.6407753
195	0xbfc1509b	-1.5102724
196	0x3feda247	1.8565148
197	0xbf2ac3da	-0.66705096
198	0x3f56daf6	0.8392786
199	0xbf2675a5	-0.6502326
200	0x3f217cb1	0.6308089
201	0x3f101ab6	0.5629076
202	0xbe101fe0	-0.1407466
203	0x3f48b354	0.78398633
204	0x3fd63e72	1.6737807
205	0xbf8f6d0d	-1.1205155
206	0xbfa173a2	-1.2613413
207	0xbceb236e	-0.028703418
208	0x3f0c4ce3	0.5480482
209	0x3eb59c24	0.35470688
210	0x3e9d1511	0.30680135
211	0x3f248120	0.6425953
212	0xbf4edf99	-0.8080993
213	0x3e2be2e6	0.16785774
214	0xbfc116c0	-1.5085068
215	0x3e171a7c	0.14756197
216	0xbf6a15db	-0.914396
217	0x3b68b926	0.0035510748
218	0x3fd7c733	1.6857666
219	0xbfbdd462	-1.4830439
220	0x3eb75a34	0.35811007
221	0xbe7e1c0a	-0.24815384
222	0xc03d5bee	-2.958736
223	0x3f22d78b	0.6361014
224	0xbfdc262b	-1.7199148
225	0xbeae0e56	-0.33995312
226	0x3ee92684	0.45537198
227	0x4007d35b	2.122275
228	0xbefe331e	-0.49648374
229	0xbe674b97	-0.22587429
230	0x3e9a145c	0.30093658
231	0x3fcb3b92	1.5877554
232	0xc010ccfd	-2.2625115
233	0x3d91f6a9	0.07127125
234	0x3fce700a	1.6127942
235	0xbfcef0a0	-1.6167183
236	0xbe3f7f67	-0.18700944
237	0x3fce1aac	1.610189
238	0x40161a59	2.3453581
239	0x3f37b90d	0.7176674
240	0x3f0587f2	0.5216056
241	0xbf47cb6f	-0.7804479
242	0xbf99e33a	-1.2022469
243	0xbf422349	-0.7583509
244	0xbec70fbd	-0.38879195
245	0x3f49165e	0.78549755
246	0x3ead06e1	0.3379431
247	0x3fc0776e	1.5036447
248	0xbf306556	-0.68904626
249	0xbe26f55b	-0.16304533
250	0xbe684b8c	-0.22685069
251	0xbe29a625	-0.16567285
252	0xbf2bf297	-0.6716704
253	0xbec070dd	-0.37586108
254	0xbf4236a0	-0.758646
255	0xbe269a1b	-0.16269724

positional_embedding.weight f4 [552, 64]
0	0x3e758a20	0.23978472
1	0x3e8dee9d	0.2772111
2	0x3f0230eb	0.5085589
3	0x3e0f2c73	0.139818
4	0xbf86dcd8	-1.0536146
5	0xbfb1598e	-1.3855455
6	0x3f944ec3	1.1586536
7	0x3da3120f	0.07962429
8	0xbeb285ae	-0.34867615
9	0x3fa62c98	1.2982359
10	0xc0175ffb	-2.3652332
11	0xbfd2bbd5	-1.6463572
12	0xbe991818	-0.29901195
13	0xbed9df0b	-0.4255298
14	0xbfe64131	-1.7988645
15	0xc0023a09	-2.0347922
16	0xbfa4813f	-1.2851943
17	0x3d40a96f	0.047036584
18	0xbe6adfca	-0.22936931
19	0xbfa93702	-1.3219912
20	0x3fe2d90c	1.7722487
21	0x3f9bb25d	1.2163807
22	0xbfe0774f	-1.753641
23	0x3f390e79	0.7228771
24	0xbf973847	-1.181405
25	0xbe58abb4	-0.2115925
26	0x3f78a09c	0.9712007
27	0x3dcde4f0	0.10053432
28	0x3f27a3fa	0.65484583
29	0xc0328aee	-2.7897296
30	0xbdd7b385	-0.105322875
31	0x3fa507fd	1.2893063
32	0xbf11b419	-0.5691543
33	0x3e7bea95	0.24601205
34	0xbf472366	-0.7778839
35	0x409f3627	4.9753604
36	0xbfabfc4b	-1.3436369
37	0x3f9f7729	1.245824
38	0x3f6cf1e5	0.925566
39	0xbf2b3b66	-0.6688751
40	0xbd9c1827	-0.07621794
41	0xbd28e1b1	-0.04123086
42	0xbfbee6d2	-1.4914191
43	0xbf4e0cdd	-0.8048838
44	0xbdf65f15	-0.12029854
45	0xbf9e7bb1	-1.2381498
46	0x3eb9b451	0.36270383
47	0xbedd46c0	-0.4321804
48	0xbfd672c1	-1.675377
49	0xbf84c36a	-1.0372136
50	0xc029b887	-2.6518877
51	0xbfcf7913	-1.6208824
52	0x3e200790	0.15627885
53	0xbf99acfd	-1.2005917
54	0x3e979cae	0.29611725
55	0x3fd4d345	1.6626974
56	0x3d964d55	0.07338969
57	0xbf797c68	-0.97455454
58	0xbfa57ac7	-1.2928094
59	0xc016ea78	-2.3580608
60	0xbf470feb	-0.77758664
61	0x3f48bac2	0.7840997
62	0x3ed60801	0.41802981
63	0x3fc77630	1.5582943
64	0x3f16d6d3	0.58921546
65	0x3ee37ed1	0.4443269
66	0xbf95610a	-1.1670239
67	0x3f2aad38	0.6667056
68	0x3f0c454f	0.54793257
69	0x3f2bac15	0.6705945
70	0xbf0572fa	-0.52128565
71	0x3f8880e3	1.0664333
72	0x3e7ce756	0.24697623
73	0x3f4955d5	0.78646594
74	0xbf179eef	-0.5922689
75	0xbde22022	-0.11041285
76	0x3f2eddaa	0.6830698
77	0x400463fe	2.068603
78	0xbf0e9116	-0.55690134
79	0xbf8eec57	-1.1165875
80	0x40246c7d	2.5691216
81	0xc0029061	-2.0400622
82	0x4039e699	2.9046996
83	0xbe6ad6d0	-0.22933507
84	0xc03adaf0	-2.919613
85	0x3f8cb2f5	1.0992113
86	0xbf0971d0	-0.5368929
87	0x3e665a64	0.22495419
88	0xbd72576e	-0.05916541
89	0x3e8d3baf	0.27584597
90	0xbf32fcc7	-0.6991696
91	0x3fdb43e9	1.71301
92	0xbecb7e6b	-0.39744887
93	0x3e4da27e	0.20081517
94	0x3fe67138	1.8003302
95	0xbef4705b	-0.4774197
96	0x3f5fb3dd	0.87383825
97	0xbf444c41	-0.76678854
98	0xbf142e24	-0.57882905
99	0xbccb481d	-0.02481466
100	0xbf847989	-1.034959
101	0x3ff03491	1.8766042
102	0x3f99599e	1.1980474
103	0x3e30ab1a	0.1725277
104	0x3fb2ad84	1.3959203
105	0xbe1b9c97	-0.15196453
106	0x402d918a	2.712008
107	0x3f4631c7	0.77419704
108	0x3eea8387	0.45803472
109	0x3f870dcc	1.0551085
110	0x3f5913c9	0.84795815
111	0xbfa77c73	-1.3084854
112	0xbf089662	-0.53354466
113	0xbeea2d1d	-0.45737544
114	0x3fc2b267	1.5210694
115	0x3f20bf9b	0.62792367
116	0xbfd76f05	-1.6830755
117	0x3c4fe5e9	0.012689092
118	0xbf417a46	-0.755772
119	0x3f470059	0.77734905
120	0x3e825c2f	0.25460956
121	0x3f952738	1.1652594
122	0x3d8b0074	0.06787196
123	0x3f7b3662	0.98129857
124	0x3ea81eb5	0.32835928
125	0xbfe6431d	-1.7989231
126	0xbf6113b4	-0.8792069
127	0x3f3c0c61	0.7345639
128	0xbfba3e51	-1.4550267
129	0xbf773107	-0.96559185
130	0x3effbb1a	0.49947435
131	0xbfe31c4a	-1.7743008
132	0xbe039319	-0.12849082
133	0x3eb94362	0.36184222
134	0xbebe5fc3	-0.37182435
135	0xbfc2f850	-1.5232029
136	0xbfcef124	-1.616734
137	0xbf00b17b	-0.50270814
138	0x3ebf705a	0.37390405
139	0x3fffb2f4	1.9976487
140	0x3f5bb076	0.85816133
141	0x3fc3a85d	1.5285755
142	0xbe12974d	-0.14315529
143	0x3f9d3cb5	1.2284151
144	0xbb9511c2	-0.004549236
145	0x3f919eab	1.1376547
146	0x3f8186ec	1.01193
147	0xbf95f249	-1.1714565
148	0x3e3a7bd2	0.18211296
149	0xbf979fd3	-1.184565
150	0xbf3653b1	-0.7122145
151	0x3f04ce7e	0.5187758
152	0xbf824652	-1.017771
153	0xbf8e0a89	-1.1096965
154	0xbff1710d	-1.8862625
155	0xbebc452b	-0.3677152
156	0xbfc2c6c5	-1.521691
157	0x3f543a99	0.8290191
158	0x3fa955c0	1.3229294
159	0xbe0b93e1	-0.1363063
160	0x3fc6b77a	1.5524743
161	0xbf86b104	-1.0522771
162	0x3f895984	1.0730443
163	0x3f836bb6	1.0267246
164	0x3ee0cbfd	0.4390563
165	0x3ed71390	0.42007113
166	0x3f87ef8f	1.0619982
167	0x3dd9b7d4	0.106307656
168	0xbba45a3f	-0.005015641
169	0xbe93a329	-0.2883542
170	0xbd83636a	-0.06415446
171	0xbd24925e	-0.04017865
172	0xbfe3a72c	-1.7785392
173	0x3da93468	0.08261949
174	0xbfe51d0e	-1.7899492
175	0xbf418863	-0.75598735
176	0xbfd6498d	-1.6741196
177	0x3e8d5d02	0.27610022
178	0xc028b6d2	-2.6361585
179	0xbfc154cc	-1.5104003
180	0x3e639d4b	0.22227971
181	0x3ecb49e8	0.39704823
182	0x3ec8bc14	0.39205992
183	0x3fbaf918	1.4607267
184	0xbc26f8af	-0.010191127
185	0xbe15a159	-0.1461233
186	0xc00d424f	-2.2071722
187	0xbf83b59d	-1.0289799
188	0xbfac2882	-1.3449862
189	0x3f1bd4aa	0.60871375
190	0xbfa38aa8	-1.277669
191	0xbf859d15	-1.0438563
192	0x3fc281c6	1.5195854
193	0x3da1e2fa	0.079046205
194	0x3da4dcb2	0.08049907
195	0xbf168a31	-0.58804613
196	0x3f35bf1b	0.7099473
197	0x3f96f793	1.1794304
198	0xbf89528c	-1.0728316
199	0x3f945e3e	1.159126
200	0x3ee82b37	0.4534547
201	0xbfa374e6	-1.277005
202	0x3f9e485d	1.2365834
203	0x3fa8f6a7	1.3200272
204	0xbfde1c78	-1.7352438
205	0x3ef7341a	0.48281938
206	0x3ff8ad16	1.9427822
207	0x3de6e21a	0.11273594
208	0x3eed28ef	0.46320292
209	0x3e62e20a	0.2215654
210	0x3f413588	0.7547231
211	0xbfd60391	-1.6719838
212	0xbf46988c	-0.7757652
213	0xc0006d4b	-2.0066707
214	0xbf95da17	-1.1707181
215	0xbf5ddbe3	-0.86663646
216	0xbfa5d686	-1.2956092
217	0xbf0159e7	-0.50527805
218	0xbf58ba3a	-0.8465916
219	0xbe610a02	-0.21976474
220	0x3f952ba5	1.1653944
221	0xbf11d0fb	-0.56959504
222	0xbedb37bb	-0.42815956
223	0xbf293dad	-0.66109735
224	0x3f8150cc	1.0102782
225	0xbf05fac1	-0.52335745
226	0x3f2d1b68	0.67619944
227	0xbfc34cbc	-1.5257792
228	0xbd5fc8b5	-0.05463477
229	0x3ef0cacb	0.4702972
230	0x3eafa2f3	0.34304008
231	0x3f4d8029	0.8027368
232	0x3ef6eb1e	0.48226255
233	0x3f4bcaf8	0.7960658
234	0x3f862360	1.0479546
235	0xbf1556df	-0.5833568
236	0xbe1e4f7e	-0.15460011
237	0xbfed7952	-1.8552649
238	0x3e8803de	0.2656545
239	0xbfd70c81	-1.6800691
240	0xbfe18825	-1.7619673
241	0xbfc235ef	-1.5172709
242	0xbf9ef97a	-1.2419884
243	0xbeb2b3eb	-0.34902892
244	0x3f0e0113	0.5547039
245	0xbfbc94bf	-1.4732894
246	0xbec51f50	-0.38500452
247	0x3f4b8028	0.79492426
248	0xbf8009ee	-1.000303
249	0xbe244dc0	-0.16045284
250	0x3f89f1b5	1.0776888
251	0x3de749c8	0.112933695
252	0x3f74b45c	0.95587707
253	0x4043f3da	3.0617585
254	0xbee9cd26	-0.45664328
255	0x3ec6e3b5	0.38845602

conv1.weight f4 [128, 64, 3]
0	0x3c7a734c	0.015286278
1	0xbd803c86	-0.06261544
2	0x3c23ae4d	0.009990287
3	0x3da00791	0.07813943
4	0xbcb1daf7	-0.021710856
5	0xbd664484	-0.056217685
6	0xbbc393f8	-0.005968567
7	0x3da943d0	0.08264887
8	0x3d53b2e2	0.051684268
9	0xbdf8ee4e	-0.12154828
10	0x3d56c896	0.052437387
11	0x3e327735	0.17428286
12	0xbe01600a	-0.12634292
13	0x3d8eef28	0.06979209
14	0xbd3c68be	-0.045998327
15	0x3ba08e93	0.0048998087
16	0x3cf479b9	0.029843198
17	0x3e7e7e72	0.24852923
18	0x3d681434	0.056659892
19	0x3ce582aa	0.028016407
20	0xbd3c612d	-0.04599111
21	0xbd09eccd	-0.033673096
22	0xbdd0117a	-0.101595834
23	0xbdb86239	-0.090031095
24	0x3d3e2da9	0.046430264
25	0xbd0cb2a8	-0.034350067
26	0xbdb2201b	-0.0869753
27	0x3dc069f3	0.09395208
28	0x3c5ee28b	0.013603817
29	0x3b9bbe81	0.0047529344
30	0xbc29d3c0	-0.010365427
31	0x3daa6d3e	0.083216175
32	0x3c801f4d	0.015639925
33	0x3d922c40	0.07137346
34	0x3c88b455	0.016687552
35	0x3da33592	0.07969202
36	0xbe0e0dc7	-0.13872443
37	0xbdc3ae2b	-0.09554704
38	0x3d3d967a	0.046286084
39	0xbdc4b9a2	-0.09605719
40	0xbdc983d9	-0.09839601
41	0xbd97a177	-0.07403844
42	0xbb0fd6ad	-0.0021948025
43	0xbddccc58	-0.10781163
44	0x3ddb0c0e	0.106956586
45	0x3e223d79	0.15843762
46	0x3d2284b1	0.039677326
47	0xbccbc91a	-0.024876166
48	0x3dacfe91	0.08446992
49	0xbe024c43	-0.12724404
50	0xbc92dc31	-0.017927261
51	0x3e60a4b8	0.21937835
52	0x3ca8576c	0.020549498
53	0xbc6e9784	-0.014562491
54	0xbdbe9f89	-0.09307773
55	0x3d39f15b	0.04539619
56	0x3baf865c	0.005356593
57	0xbdf1bebc	-0.11803958
58	0xbe04b694	-0.12960273
59	0x3de8aa9f	0.113606684
60	0x3dec9ee2	0.11553742
61	0xbcf4ca26	-0.029881548
62	0x3dce4ea9	0.10073597
63	0x3cd8441a	0.02639966
64	0x3d319b6d	0.043361116
65	0xbb648e85	-0.0034874987
66	0x3e448f92	0.19195393
67	0x3e0b32c2	0.13593581
68	0x3e06f3c7	0.13178931
69	0xb9874624	-0.00025801465
70	0x3d346c83	0.044048797
71	0x3d0943d2	0.033511944
72	0x3e09836e	0.13429043
73	0x3cef1e71	0.02918932
74	0x3e00cd60	0.12578344
75	0xbc971b1c	-0.018445544
76	0xbcda8744	-0.026675828
77	0xbd138a0f	-0.036020335
78	0x3d8fd927	0.070238404
79	0x3d7c8cf2	0.061657853
80	0xbe081efd	-0.13293071
81	0x3d2e476c	0.042548582
82	0xbddf2578	-0.108958185
83	0x3e131875	0.14364798
84	0xbbf1365d	-0.007361217
85	0xbd685017	-0.056717005
86	0x3dc2633f	0.09491586
87	0x3d946d63	0.07247426
88	0x3dcac476	0.09900753
89	0x3d8ed3fc	0.069740266
90	0x3db07fd2	0.0861813
91	0x3d98c0d6	0.074586555
92	0x3b835dcd	0.0040089847
93	0xbbdd2ffc	-0.006750105
94	0xbd57cde0	-0.052686572
95	0x3e23e71f	0.16006134
96	0xbb262a6a	-0.002535487
97	0xbd6e1e38	-0.058134288
98	0x3dbdf102	0.09274484
99	0xbcc80af7	-0.024419291
100	0x3e432b21	0.19059421
101	0x3d3ef9fb	0.04662512
102	0x3de63962	0.11241414
103	0x3e2b3d82	0.16722682
104	0x3d8d672c	0.06904444
105	0xbce9402b	-0.02847298
106	0xbc304e74	-0.010760892
107	0xbc95c24f	-0.01828113
108	0x3d954065	0.07287673
109	0x3db23ac3	0.08702614
110	0x3bed63ea	0.0072445767
111	0x3d057666	0.032583617
112	0xbd039d52	-0.032132454
113	0xbd38043d	-0.044925917
114	0xbc6a5fcb	-0.014305065
115	0xbb407190	-0.0029364564
116	0xbe36c8ce	-0.17850038
117	0x3daae02f	0.08343541
118	0xbe06408d	-0.13110562
119	0xbdb3a899	-0.08772392
120	0x3e79948c	0.24373072
121	0xbd21f540	-0.03954053
122	0x3d84f8e7	0.06492787
123	0xbb91d5dd	-0.0044505433
124	0x3e67f390	0.22651505
125	0xbdbdb474	-0.09262934
126	0xbdd4305a	-0.10360785
127	0x3d232214	0.03982742
128	0x3ddd1f50	0.10796988
129	0xbe2a8a72	-0.16654375
130	0x3d93f95d	0.07225297
131	0xbc0310dc	-0.007999625
132	0xbd9b46e2	-0.07581879
133	0xbe2d6ddc	-0.1693644
134	0x3c123324	0.008923326
135	0x3d58a711	0.052893702
136	0xbd8815eb	-0.066448055
137	0xbdda2ed4	-0.10653463
138	0xbe0190e9	-0.12652935
139	0xbc9ae7db	-0.018909385
140	0xbe173a34	-0.14768296
141	0x3dc9c0de	0.098512396
142	0xbcccaa63	-0.02498359
143	0x3dd8dd1e	0.1058905
144	0xbd830113	-0.06396689
145	0x3d5852d9	0.052813385
146	0xbc768eb5	-0.015048672
147	0x3dca9e23	0.098934434
148	0x3ca181d0	0.01971522
149	0x3c41fbe1	0.011839838
150	0xbdaa3030	-0.08309972
151	0xbda70972	-0.081560984
152	0xbe120f8f	-0.14263748
153	0x3d388d71	0.045056764
154	0x3c97c115	0.018524686
155	0x3dc98f77	0.09841817
156	0xbe872f74	-0.2640339
157	0x3ded5b77	0.11589711
158	0x3c18e241	0.009331287
159	0xbdc033c9	-0.09384877
160	0xbe2955ca	-0.16536632
161	0xbe1fed6f	-0.15617917
162	0xbce6e613	-0.02818588
163	0xbc972575	-0.018450478
164	0x3dac89fb	0.08424755
165	0xbd16155d	-0.036641467
166	0x3d52cf11	0.051467005
167	0xbe5f4bb2	-0.21806219
168	0xbb406652	-0.0029357863
169	0xb8008ed5	-3.06506e-05
170	0xbc9cec4e	-0.019155648
171	0x3e0e1b88	0.1387769
172	0xbb46c2d9	-0.003032854
173	0x3e11e569	0.1424767
174	0x3df94172	0.12170686
175	0x3d9328f0	0.071855426
176	0x3ba1e771	0.00494092
177	0xbd89b3f4	-0.067237765
178	0x3cabcf07	0.020972742
179	0xbe55112e	-0.20807335
180	0xbd22aa9f	-0.0397135
181	0x3cd77747	0.026301993
182	0x3e4f1f77	0.20226847
183	0xbd7c04be	-0.06152796
184	0xbc83d253	-0.016091501
185	0x3e3c1763	0.18368296
186	0x3e240272	0.16016558
187	0x3e2a58a0	0.1663537
188	0xbd5167fd	-0.05112456
189	0x3d0b5561	0.03401697
190	0x3c069ccf	0.008216097
191	0xbd6d5888	-0.057945758
192	0xbc2c27e8	-0.010507561
193	0xba56f37a	-0.0008199733
194	0x3da39521	0.079874285
195	0x3da243c0	0.079230785
196	0xbe100e29	-0.14067902
197	0xbaf20e85	-0.0018467462
198	0x3cf48007	0.029846204
199	0x3d953f2a	0.07287438
200	0x3e149085	0.14508255
201	0xbd2cd895	-0.042198736
202	0x3dbe79c6	0.0930057
203	0xbdb25e1f	-0.087093584
204	0xbcd333a3	-0.025781458
205	0x3e315ab8	0.17319763
206	0x3d9b98df	0.07597517
207	0xbd94d17b	-0.07266518
208	0xbdb69c1b	-0.089164935
209	0xbd84e56a	-0.0648907
210	0x3dcc1279	0.09964461
211	0x3dbd253a	0.09235616
212	0x3d8be99c	0.06831667
213	0xbbf1eb77	-0.007382806
214	0x3cd7fa6a	0.026364524
215	0xbdefbe26	-0.1170619
216	0xbd805600	-0.06266403
217	0xbd0579da	-0.03258691
218	0xbd471aef	-0.04860967
219	0x3d6503a5	0.05591168
220	0x3dd0ebd6	0.10201232
221	0x3c701744	0.014653984
222	0xbe28a282	-0.16468242
223	0xbc6674fa	-0.014065975
224	0x3d581e5b	0.052763324
225	0xbab5a2a0	-0.001385767
226	0x3d1e553e	0.038655512
227	0x3de96185	0.113955535
228	0x3cee3439	0.029077636
229	0x3e57660d	0.21035023
230	0x3daac0f8	0.08337587
231	0xbd9cad3c	-0.07650229
232	0xbd919148	-0.07107788
233	0xbd094d8e	-0.033521228
234	0xbc6bbb8e	-0.014387978
235	0xbe5a9b1a	-0.21348229
236	0x3c210f35	0.009830286
237	0xbdae4fa7	-0.08511286
238	0x3d2c9f0e	0.042143874
239	0x3c137da3	0.009002122
240	0xbbc4df52	-0.006008067
241	0xbe0fc7f7	-0.14041124
242	0xbd07bdbe	-0.033139937
243	0xbddd7e19	-0.10815067
244	0xbd78d715	-0.060751993
245	0x3d09b937	0.0336239
246	0x3d8a3aac	0.06749472
247	0x3d5fdd13	0.054654192
248	0xbd2c088e	-0.042000346
249	0xbd2ac042	-0.041687258
250	0x3c048caf	0.008090182
251	0xbc347a5f	-0.011015504
252	0xbde47d53	-0.11156716
253	0xbdbaf34f	-0.09128439
254	0xbbafa612	-0.0053603733
255	0x3e22999b	0.15878908

conv1.bias f4 [128]
0	0x3df32d6c	0.11873898
1	0xbe9efcd1	-0.3105226
2	0xbdf4296e	-0.119219646
3	0xbe499080	-0.19684029
4	0xbd3d6df6	-0.046247445
5	0xbdf0dd6d	-0.117609836
6	0xbe0da103	-0.13830952
7	0xbe0d60f8	-0.13806522
8	0xbe0cbee9	-0.13744701
9	0xbe135e66	-0.14391479
10	0xbd18b7bc	-0.037284598
11	0x3cba5587	0.02274586
12	0xbeb05de9	-0.34446648
13	0xbe5cf023	-0.2157598
14	0x3d8f9c2b	0.070122086
15	0x3cd20e11	0.025641473
16	0xbe00b99b	-0.12570803
17	0x3e003529	0.12520279
18	0xbd90f607	-0.07078176
19	0x3dd5a7ff	0.10432433
20	0xbca0bff7	-0.019622786
21	0xbd3c6151	-0.045991246
22	0xbe4870b5	-0.19574244
23	0x3d9d0428	0.07666808
24	0xbd341d78	-0.043973416
25	0xbd72cd5b	-0.059277873
26	0xbe5810c0	-0.2110014
27	0xbe32a4ee	-0.17445728
28	0xbd260a95	-0.040537436
29	0x3ce8fa9a	0.028439809
30	0xbd1c4f3d	-0.038161505
31	0xbc340b9f	-0.010989099
32	0x3c315493	0.010823387
33	0xbe417895	-0.18893655
34	0xbe93657e	-0.2878837
35	0xbe760bb8	-0.24027908
36	0xbe4c3bdc	-0.1994471
37	0x3dc01cf3	0.093805216
38	0xbbe6657e	-0.007031142
39	0xbdd23296	-0.10263555
40	0xbe25d1bb	-0.16193287
41	0xbb5da307	-0.0033819096
42	0xbe57138a	-0.21003547
43	0x3d944ded	0.07241426
44	0x3e1070e1	0.1410556
45	0x3c92bda3	0.017912691
46	0xbceb4050	-0.02871719
47	0x3c95e4a7	0.018297506
48	0xbd36a707	-0.044592883
49	0xbaa0eb75	-0.0012277203
50	0xbe01058d	-0.12599774
51	0xbd77b186	-0.060472034
52	0xbc3c8272	-0.01150571
53	0xbcbc49e6	-0.022984456
54	0x3e878b47	0.26473448
55	0xbce6ec7d	-0.028188938
56	0xbe4385fb	-0.19094078
57	0x3cb3ae4f	0.021933703
58	0x3e0065a0	0.12538767
59	0x3df14044	0.11779836
60	0x3e45b350	0.19306684
61	0x3e5ac4c8	0.21364129
62	0x3e81bef7	0.25341007
63	0xbdcfdf96	-0.101500675
64	0x3cf52bbf	0.029928086
65	0x3bb8af14	0.0056361053
66	0x3da64daa	0.08120282
67	0x3df1ac95	0.118004955
68	0xbe28b5d8	-0.16475618
69	0x3e3e0998	0.18558347
70	0xbdbb4e56	-0.09145801
71	0xbdbf93be	-0.093543515
72	0xbd24d5da	-0.040243007
73	0xbe068715	-0.13137467
74	0xbdcb93ff	-0.099403374
75	0x3ddf1ec5	0.10894541
76	0xbd4f6fe0	-0.0506438
77	0xbd4b453a	-0.049626566
78	0xbd0f69f4	-0.035013154
79	0xbe3d5d7f	-0.18492697
80	0xbdcf3452	-0.10117401
81	0x3dfc3f4d	0.12316761
82	0x3d9dbbcf	0.07701837
83	0x3d776b9f	0.06040537
84	0xbc86160f	-0.01636794
85	0xbe4dbf2a	-0.20092455
86	0xbe12901f	-0.1431279
87	0xbcefa10d	-0.0292516
88	0x3cf8d075	0.030372838
89	0x3dbd48c9	0.09242398
90	0xbdae3551	-0.08506263
91	0x3cf57114	0.029961146
92	0xbd4234af	-0.047413524
93	0x3d6b9e44	0.05752398
94	0x3da5ebb7	0.081016
95	0xbbc44a6c	-0.005990317
96	0x3d353aa7	0.04424539
97	0xbdbd8a3a	-0.0925488
98	0xbcf32e93	-0.029685294
99	0xbd67828e	-0.05652099
100	0xbc436ca2	-0.011927756
101	0xbdc6d92c	-0.09709391
102	0xbe889567	-0.26676485
103	0x3c9e00e9	0.019287543
104	0xbe4fcd53	-0.20293169
105	0xbe18424a	-0.14869037
106	0x3b7ba46e	0.0038397568
107	0x3dc11991	0.094287045
108	0xbd95fe55	-0.073239006
109	0x3d90690f	0.07051288
110	0xbd9c1a63	-0.0762222
111	0x3e0cd7d3	0.13754205
112	0x3e325eb0	0.17418933
113	0x3d749507	0.059712436
114	0x3c10f5f4	0.008847702
115	0xbdb99cd9	-0.090631194
116	0xbd2072d8	-0.039172024
117	0xbe40fd9b	-0.18846743
118	0xbe271cf0	-0.16319633
119	0xbe37cb5d	-0.1794867
120	0xbe58e672	-0.21181658
121	0xbdea4443	-0.11438801
122	0x3d6862a6	0.056734703
123	0xbd0619d0	-0.03273946
124	0xbe086e8a	-0.13323417
125	0xbcb0acd0	-0.021566778
126	0xbd833f4e	-0.06408559
127	0xbddbe200	-0.107364655

conv2.weight f4 [64, 128, 5]
0	0x3cc88203	0.024476057
1	0xbd4013cd	-0.046893883
2	0xbd9c5a5c	-0.07634422
3	0xbd7217e0	-0.0591048
4	0xbe709808	-0.23495495
5	0xbc533518	-0.0128910765
6	0xbd0344da	-0.032048084
7	0x3ce868a7	0.028370215
8	0x3d6bdd84	0.0575843
9	0x3db2d7b6	0.0873255
10	0x3de34a4f	0.110981576
11	0xbcb6a88d	-0.022297168
12	0xbb204a91	-0.0024458508
13	0x3cc32f2a	0.0238262
14	0x3cc2fb2c	0.023801409
15	0xbcdce0d4	-0.026962675
16	0xbd411c52	-0.04714615
17	0xbc64b6ad	-0.013959569
18	0xbd3a9223	-0.045549523
19	0x3d4708cf	0.048592385
20	0xbd1415ee	-0.036153726
21	0xbd9e7f6d	-0.07739148
22	0xba1a2d21	-0.00058813585
23	0xbd076000	-0.033050537
24	0xbdbd6989	-0.09248645
25	0xbda5b95c	-0.08091995
26	0x3d53e7db	0.051734786
27	0xbc225de0	-0.009910077
28	0xbcff7c24	-0.031187125
29	0x399f537f	0.00030389053
30	0x3c9b96ed	0.018992865
31	0xbb9a49f8	-0.004708525
32	0x3ca74101	0.020416738
33	0x3cb2c43a	0.021822084
34	0x3d7b4886	0.06134846
35	0xbdd86b64	-0.10567358
36	0x3d2f7fc6	0.042846464
37	0xbb29c2d2	-0.0025903475
38	0x3ce80121	0.02832085
39	0xbd8cbfb6	-0.068725035
40	0x3c0761c3	0.008263054
41	0xbdb9b0fa	-0.09066959
42	0xbd293e87	-0.041319396
43	0x3d8425ae	0.06452499
44	0xbc874aef	-0.016515223
45	0x3e066696	0.13125071
46	0x3cbcd8fc	0.023052685
47	0x3cc6823a	0.024232019
48	0x3d0b9bb1	0.034084026
49	0xbdf056ef	-0.11735331
50	0x3d9932e4	0.0748041
51	0x3d0faad8	0.03507504
52	0x3d242343	0.04007269
53	0x3d3277c7	0.04357126
54	0xbdff8a32	-0.124775305
55	0x3d5cd2da	0.05391202
56	0xbd9f109a	-0.07766838
57	0xbd89a41b	-0.06720754
58	0x3a4a798d	0.0007723801
59	0x3d4a2d23	0.049359452
60	0x3c0206d3	0.007936197
61	0xbd0ae710	-0.033911765
62	0x3ceddd2c	0.029036127
63	0xbcb3a10e	-0.021927383
64	0x3d515853	0.051109623
65	0x3ccbf190	0.02489546
66	0x3cd6efc3	0.026237374
67	0xbc8c154c	-0.017099999
68	0xbcdd27a8	-0.026996449
69	0xbbf2e244	-0.007412227
70	0x3ccc7e64	0.024962611
71	0xba14a448	-0.0005670232
72	0xbdf2021e	-0.1181681
73	0x3daf1d82	0.0855055
74	0x3d89c3e1	0.06726814
75	0x3cad277b	0.02113699
76	0x3d29b451	0.04143173
77	0xbc708e72	-0.014682399
78	0xbd91dda8	-0.07122356
79	0x3a3ff09b	0.0007321925
80	0xbe2975e3	-0.16548876
81	0xbe6c5049	-0.23077501
82	0xbe67a7f0	-0.22622657
83	0x3d60994d	0.0548337
84	0xbd0bc7a1	-0.034125928
85	0x3dbaed03	0.09127238
86	0x3d7a5153	0.061112713
87	0xbcdbcc48	-0.026830807
88	0x3d07110a	0.032975234
89	0x3db06089	0.086121626
90	0x3d9c6d04	0.076379806
91	0x3cf2e183	0.029648548
92	0xbd3d677d	-0.046241272
93	0xbc2617ad	-0.010137481
94	0xbe5c7c24	-0.21531731
95	0x3d4504a2	0.04810012
96	0x3d814805	0.06312565
97	0x3d95f781	0.07322598
98	0xbd823b4f	-0.063589685
99	0xbd3deb9a	-0.046367265
100	0x3d9f2a31	0.07771719
101	0x3c6d5bea	0.014487246
102	0x3c97641f	0.018480359
103	0xbd25bb50	-0.04046184
104	0x3cacdfe4	0.021102853
105	0x3c46cbb7	0.01213353
106	0xbcb29537	-0.021799667
107	0xbcbf2980	-0.023335218
108	0x3d2fea52	0.042948075
109	0xbd8908bf	-0.06691121
110	0xbc5ee1fb	-0.013603683
111	0x3ab24da0	0.0013603456
112	0x3d1345d9	0.035955284
113	0x3c84562b	0.01615437
114	0x3d553bd9	0.05205903
115	0x3dd215cf	0.10258066
116	0xbc711ee9	-0.014716842
117	0x3d05eb62	0.03269518
118	0xbd6ed1cb	-0.058305543
119	0xbe299a93	-0.16562872
120	0x3d861361	0.06546665
121	0xbc488b84	-0.012240294
122	0xbcde5a68	-0.027142718
123	0x3d960827	0.07325774
124	0xbe57abf8	-0.21061695
125	0xbc651c25	-0.013983761
126	0x3c7756b4	0.015096355
127	0x3cebd451	0.028787764
128	0x3de58574	0.11207095
129	0xbdcb6702	-0.099317566
130	0x3c283e68	0.010268785
131	0xbd3678f0	-0.04454893
132	0xbd6d87ee	-0.05799096
133	0xbd03998e	-0.032128863
134	0xbd8f7773	-0.07005205
135	0xbde80e23	-0.11330821
136	0x3d39effc	0.045394883
137	0x3cff8bca	0.031194586
138	0x3cd5dd0d	0.026106382
139	0xbd98bcbf	-0.074578755
140	0x3df1fd96	0.11815946
141	0xbda0a478	-0.0784387
142	0x3cf38ec5	0.029731164
143	0xbd6db02b	-0.058029335
144	0xbd6db8f0	-0.0580377
145	0xbd27269a	-0.040808298
146	0xbd1f3070	-0.038864553
147	0x3bc1371c	0.005896462
148	0xbd69af25	-0.057051796
149	0x3dd72af8	0.105062425
150	0x3db27e9a	0.087155536
151	0xbcca5fe9	-0.024703937
152	0x3d0bbe18	0.034116834
153	0xbdb433ba	-0.087989286
154	0x3e128390	0.14308
155	0x3cac0d4a	0.02100243
156	0xbca7055f	-0.020388303
157	0xbaaffd92	-0.001342701
158	0xbcd5dacb	-0.026105305
159	0xbddf6e1f	-0.10909676
160	0x3cf84245	0.030305037
161	0xb89e5599	-7.549971e-05
162	0x3adc1c44	0.0016793092
163	0xbd648347	-0.05578926
164	0xbbc1795e	-0.0059043607
165	0xbc69a04e	-0.014259411
166	0x3c854b23	0.01627118
167	0x3d82de51	0.0639006
168	0xbd2f8a7d	-0.042856682
169	0xba974628	-0.0011541294
170	0xbcabe663	-0.02098388
171	0x3d82fbec	0.063957065
172	0xbbb408b0	-0.0054941997
173	0x3cd507e5	0.026004741
174	0x3d8f69db	0.07002612
175	0x3d606414	0.054782942
176	0xbd6cc0d0	-0.057801068
177	0x39c8c243	0.0003829171
178	0xbccba243	-0.024857646
179	0x3d66a8d9	0.05631337
180	0x3ca943d6	0.02066223
181	0x3debe6f1	0.11518658
182	0x3cbb6f61	0.022880258
183	0x3b7a221f	0.003816731
184	0x3d287449	0.041126523
185	0xbb66b687	-0.003520401
186	0x3d79dcc5	0.061001558
187	0xbd8900f7	-0.06689637
188	0x3bcd16cf	0.0062588225
189	0xbcb80b23	-0.022466248
190	0xbdcd02f6	-0.100103304
191	0xbd1ee075	-0.038788278
192	0x3d2ac112	0.041688032
193	0xbdf7a413	-0.120918415
194	0x3ca0ca6b	0.01962777
195	0xbd060763	-0.03272189
196	0xbbf25813	-0.007395753
197	0x3cbc3162	0.022972766
198	0xbd082c60	-0.033245444
199	0x3c2d3f37	0.010574154
200	0x3d086b19	0.03330526
201	0x3cdf1438	0.02723132
202	0xbd10c3fb	-0.03534315
203	0xbd374f51	-0.044753376
204	0x3dd14f6d	0.102202274
205	0x3d42da51	0.047571484
206	0xbd000c5c	-0.031261787
207	0xbd3da82f	-0.04630297
208	0x3ccb7b5a	0.024839092
209	0x3e156cec	0.14592332
210	0xbc8abbbf	-0.016935227
211	0xbcbf951d	-0.023386532
212	0xbd833222	-0.064060465
213	0xbbf5235d	-0.0074810223
214	0xbdb25b90	-0.087088704
215	0x3d9d6434	0.07685128
216	0x3d45d2bd	0.04829668
217	0xbc419b82	-0.011816861
218	0x3c1911a3	0.009342584
219	0xbd7d67d0	-0.06186658
220	0x3cb96d1f	0.02263504
221	0x3ddb6f47	0.10714584
222	0x3d484519	0.04889402
223	0xbca3ffab	-0.020019373
224	0x3cd30526	0.02575929
225	0x3c0d51f8	0.0086255
226	0x3dd8bc77	0.10582822
227	0xbd937837	-0.072006635
228	0x3d34753a	0.04405711
229	0xbd394c85	-0.04523899
230	0xbc0f6125	-0.008751188
231	0x3bb621dc	0.0055582356
232	0x3ccc1cfe	0.024916168
233	0xbc79768b	-0.015226017
234	0x3d140c6e	0.036144666
235	0xbd443603	-0.047903072
236	0x3b1a4466	0.0023539304
237	0x3cc1d815	0.023662606
238	0x3d61344e	0.054981522
239	0x3d1c9686	0.038229488
240	0x3ccc6421	0.024950089
241	0x3d67ea14	0.05661972
242	0x3d2d18a4	0.042259827
243	0xbc1e1d95	-0.009650608
244	0xbdd03131	-0.101656325
245	0xbe31c4df	-0.17360257
246	0xbdd45977	-0.103686266
247	0x3c63889d	0.013887552
248	0xbe26203f	-0.16223238
249	0x3da4e811	0.08052076
250	0x3d03d2eb	0.03218357
251	0xbd06bc46	-0.032894395
252	0xbda12c9a	-0.07869835
253	0x3db9710c	0.09054765
254	0xbe2ecb2e	-0.17069694
255	0x3d26048b	0.040531676

conv2.bias f4 [64]
0	0x3d5c06f3	0.053717565
1	0xbcb3b0f9	-0.021934973
2	0xbd83d761	-0.06437565
3	0xbd961889	-0.073288985
4	0x3e396684	0.18105513
5	0x3ce70dbf	0.028204797
6	0x3e7d1a2a	0.24717012
7	0x3d6890a7	0.056778576
8	0x3b0473ec	0.0020210696
9	0x3d55568f	0.0520845
10	0xbb3ff49a	-0.002929008
11	0xbb6dc567	-0.003628099
12	0xbd1f15a2	-0.03883899
13	0x3dd172dd	0.102269866
14	0xbcba3124	-0.02272851
15	0x3d7d69d2	0.061868496
16	0x3daa6654	0.08320299
17	0xbda7a53e	-0.08185814
18	0x3da5427d	0.08069322
19	0x3d05205d	0.032501567
20	0x3dfee696	0.124463245
21	0x3de896ff	0.11356925
22	0xbd4e2003	-0.050323498
23	0x3d829945	0.0637689
24	0x3d0a7f2b	0.033812683
25	0x3dfdb948	0.12388855
26	0x3dab3dd3	0.083614014
27	0xbded6a7d	-0.11592577
28	0x3da6b793	0.08140483
29	0x3d7f5965	0.062341113
30	0xbc061888	-0.00818456
31	0x3d167268	0.0367302
32	0x3d7180f2	0.058960862
33	0x3db73bc5	0.08946947
34	0x3d7b5611	0.061361376
35	0x3e29371f	0.16524933
36	0x3db8cb0e	0.090231046
37	0x3dc92c4c	0.09822902
38	0xbc5e23f6	-0.013558378
39	0x3e0d7a05	0.13816078
40	0x3c2fcea9	0.010730424
41	0x3dc094aa	0.094033554
42	0xbca186d4	-0.019717611
43	0x3d822a33	0.06355705
44	0x3de95f84	0.11395171
45	0x3e690ec8	0.22759545
46	0x3d942f05	0.07235531
47	0x3e30680d	0.17227192
48	0x3dcde545	0.10053495
49	0xbd844b7a	-0.064597085
50	0x3b7aa9a8	0.0038248096
51	0x3d8fc27f	0.07019519
52	0x3d34af5c	0.04411255
53	0x3d8e4916	0.06947534
54	0x3dfe52fa	0.1241817
55	0x3c1d91a4	0.009617243
56	0x3df5f378	0.120093286
57	0x3c2eae0c	0.010661613
58	0x3af2f0d0	0.0018534902
59	0x3dd5902e	0.10427891
60	0xbd1903a4	-0.037356988
61	0x3cc1603f	0.023605464
62	0xbced55b0	-0.028971523
63	0x3d6b2b5c	0.057414398

conv3.weight f4 [64, 64, 11]
0	0x3d45d27d	0.04829644
1	0x3cf95e45	0.030440459
2	0x3e014188	0.12622654
3	0x3dc9ccce	0.098535165
4	0x3cd38405	0.025819788
5	0x3cb3b7ad	0.02193817
6	0x3c9e3153	0.019310629
7	0x3d2f8e7b	0.04286049
8	0x3a14dab6	0.00056783424
9	0x3d46cded	0.04853623
10	0xbc7d83ad	-0.0154732885
11	0x3ace3e59	0.0015735134
12	0x3ce46735	0.027881244
13	0x3da40a32	0.08009757
14	0x3d6d1b91	0.057887617
15	0x3d3f2c10	0.04667288
16	0x3e2e05a1	0.16994335
17	0x3e1cb47d	0.15303226
18	0x3e06e82e	0.13174507
19	0x3db60721	0.088880785
20	0x3de10f50	0.10989249
21	0x3c949f61	0.018142404
22	0x3de12a9f	0.109944575
23	0x3dd1dfec	0.10247788
24	0x3d94258f	0.07233726
25	0x3d4764c9	0.0486801
26	0x3dc923bf	0.09821271
27	0x3d89120a	0.06692894
28	0x3e10097a	0.14066115
29	0x3d75de8b	0.060026687
30	0x3d64720c	0.055772826
31	0x3d5cc142	0.053895243
32	0x3d566fc2	0.052352674
33	0x3e80e724	0.25176346
34	0x3e6c3649	0.23067583
35	0x3e1e246c	0.15443581
36	0x3e3243ef	0.17408727
37	0x3e9e0962	0.30866534
38	0x3e7a3f44	0.24438196
39	0x3e6d9be9	0.23204006
40	0x3ea1de60	0.3161497
41	0x3e5c40f3	0.21509151
42	0x3e50d09a	0.20392075
43	0x3e8211a3	0.2540408
44	0xbd50d270	-0.05098194
45	0x3b8deac1	0.0043309634
46	0x3d24f72e	0.04027479
47	0x3d77131e	0.060320966
48	0x3d58df44	0.052947298
49	0x3da075ed	0.078349926
50	0x3c5d89f0	0.013521656
51	0xbb3a0a9d	-0.0028387674
52	0xbbaf5c24	-0.00535156
53	0xbc1d4099	-0.009597921
54	0x3cbf9b89	0.023389595
55	0xbd7fa30c	-0.062411353
56	0xbd83ae6a	-0.06429751
57	0xbda78715	-0.08180062
58	0xb77ac4b7	-1.4946962e-05
59	0xbb83d801	-0.0040235524
60	0x3c4d5912	0.012533443
61	0x3da105cf	0.07862436
62	0x3d41ccf6	0.047314607
63	0xbaa18793	-0.001232373
64	0xb9e491e6	-0.00043596252
65	0xbd6ad1aa	-0.057328857
66	0xbd735160	-0.059403777
67	0xbdc2712a	-0.094942406
68	0xbdf16eec	-0.11788735
69	0xbdd46291	-0.103703626
70	0xbe01c4b2	-0.1267269
71	0xbdef9f27	-0.11700278
72	0xbdb0756f	-0.08616149
73	0x3d2beac2	0.04197193
74	0x3d17968c	0.037008807
75	0xbc05b901	-0.008161784
76	0x3ce79d75	0.028273324
77	0x3d0d47dc	0.03449236
78	0xbcb8042b	-0.022462925
79	0x3cb4740b	0.02202799
80	0x3dcde464	0.10053328
81	0xbd3dc97a	-0.04633472
82	0xbd5b2056	-0.053497635
83	0xbdad7d8d	-0.084712125
84	0xbc21e894	-0.009882111
85	0xbce264d3	-0.027635967
86	0xbc4c5b95	-0.012473007
87	0xbccc1a54	-0.024914898
88	0x3d3fdc4d	0.046840955
89	0xbd579ae2	-0.052637942
90	0xbe296db6	-0.16545758
91	0xbe3f0556	-0.18654379
92	0xbe338e60	-0.1753478
93	0xbdf27c3c	-0.11840102
94	0x3d6f7e6f	0.058470186
95	0x3dea53ac	0.114417404
96	0xbd8de78b	-0.06928929
97	0xbdd3beef	-0.10339152
98	0xbdd1c1d9	-0.10242052
99	0x3c9a0a7f	0.018803833
100	0xbbe32efd	-0.0069330917
101	0x3bd48d86	0.0064865975
102	0x3c15f2ee	0.009152157
103	0x3ca8d7c2	0.020610694
104	0x3c0c56b3	0.008565593
105	0x3da2592d	0.07927165
106	0xbc417cf8	-0.01180958
107	0x3c603f43	0.013686958
108	0x3b090625	0.0020908203
109	0x3c8641df	0.016388832
110	0x3e3c994f	0.18417858
111	0x3e4ef14d	0.20209236
112	0x3e814caf	0.25253817
113	0x3e6fa4cb	0.23402707
114	0x3e9db0d7	0.3079898
115	0x3e98ba11	0.29829457
116	0x3e9bd1d8	0.30433536
117	0x3e8f0090	0.27930117
118	0x3ebda626	0.37040824
119	0x3f0b2319	0.5435043
120	0x3ec8dda5	0.392316
121	0xbc422f30	-0.011852071
122	0xbd8aa94b	-0.06770571
123	0xbc74ac7f	-0.014933704
124	0xbd9eba45	-0.07750372
125	0xbd633079	-0.05546615
126	0x3c800525	0.015627453
127	0x3d032137	0.032014098
128	0x3db9d10c	0.09073076
129	0x3db71d8f	0.08941185
130	0x3d41d711	0.047324244
131	0x3c34fcf5	0.011046638
132	0xbd6a38d0	-0.057183087
133	0xbc899048	-0.016792431
134	0x3d16055e	0.036626212
135	0xbd0f190f	-0.034936007
136	0xbd15dd14	-0.03658779
137	0x3f36209c	0.7114351
138	0x3c23cb4c	0.0099972
139	0xbdf7bf8c	-0.120970815
140	0xbc87cb37	-0.016576393
141	0xbcf514b0	-0.029917091
142	0xbc5de3c5	-0.013543074
143	0xbc2dc892	-0.010606902
144	0xbcc8cd9e	-0.024512108
145	0x3cd9d778	0.026592001
146	0x3c68157c	0.0141652785
147	0xbab088ca	-0.0013468501
148	0xbd25aa3e	-0.04044556
149	0xbd06a152	-0.03286869
150	0xbc76c056	-0.015060505
151	0x3cc4d461	0.024027051
152	0xbca615c3	-0.020274049
153	0xbd4bbd5d	-0.049741138
154	0x3d3cc2d9	0.04608426
155	0x3d6eabb6	0.058269225
156	0x3d1192c1	0.035540346
157	0x3d385bf0	0.045009553
158	0x3cbd27ca	0.023090262
159	0x3d5a7828	0.053337246
160	0x3dbb3eb3	0.09142818
161	0x3e03a7d7	0.12856995
162	0x3d54147d	0.05177735
163	0x3dd3db95	0.10344616
164	0x3cdded11	0.027090581
165	0x3cf39666	0.029734802
166	0x3d05fa8f	0.032709654
167	0x3c809946	0.015698086
168	0x3d90672a	0.07050927
169	0xbd246272	-0.040132947
170	0xbc96b347	-0.018396033
171	0xbd9c0cf2	-0.076196566
172	0xbd204328	-0.039126545
173	0x3ca1e228	0.01976116
174	0x3c0f7f2e	0.008758349
175	0x3c8fb2b3	0.017541265
176	0xbcbf592d	-0.023357952
177	0xbd47506e	-0.048660688
178	0xbc2055a6	-0.009786045
179	0x3d0d73df	0.03453433
180	0xb9ac23be	-0.00032833026
181	0x3cfd4c06	0.03092004
182	0xbd4ca120	-0.04995835
183	0x3d43aab5	0.04777022
184	0x3d49f400	0.049304962
185	0x3c17884f	0.009248807
186	0xbd1e46a7	-0.038641598
187	0xbb1a5ead	-0.0023554966
188	0xbca90b1f	-0.020635186
189	0x3c54ada5	0.012980853
190	0xbcc4ca9a	-0.02402239
191	0x3c3feadb	0.011713709
192	0x3eb07c09	0.3446963
193	0x3dbdd69f	0.09269451
194	0x3c157ae0	0.009123534
195	0xbb276557	-0.002554258
196	0x3d2107cb	0.039314073
197	0x3d0c5fd6	0.034271084
198	0x3d19e5ea	0.03757278
199	0x3d0e9e4f	0.034818944
200	0x3d1a55b7	0.0376794
201	0xbc6f2399	-0.0145958895
202	0xbac1fdbf	-0.0014800354
203	0xbcaff646	-0.021479737
204	0xbd31a862	-0.043373473
205	0x3b186d4a	0.00232585
206	0xbca37b65	-0.0199563
207	0x3bae156e	0.005312613
208	0x3a9c47c1	0.001192324
209	0x3c95db43	0.018293029
210	0xbca344ea	-0.019930322
211	0xbccbbd7d	-0.024870628
212	0x3d3a7e6a	0.045530714
213	0x3da99b98	0.0828163
214	0x3da472df	0.080297224
215	0x3d92b317	0.07163065
216	0x3d3dac3c	0.046306834
217	0x3ca5e31f	0.020249901
218	0x3d10e137	0.03537103
219	0x3c8b20c6	0.016983401
220	0x3d66e721	0.056372765
221	0x3c9a958c	0.018870138
222	0x3b3c6b47	0.0028750466
223	0xbc72e54b	-0.0148251755
224	0xbd384399	-0.04498634
225	0xbdb2c99f	-0.087298624
226	0xbdfe5b54	-0.12419763
227	0xbdc75026	-0.09732084
228	0xbd36137f	-0.044452187
229	0xbc16d226	-0.009205377
230	0x3d76604a	0.060150422
231	0x3c0cd364	0.008595321
232	0xbbce354f	-0.006292976
233	0x3d07830c	0.03308396
234	0x3c524068	0.012832738
235	0x3c5e6525	0.013573919
236	0x3daee366	0.085394666
237	0x3db8b699	0.09019203
238	0xbb980c98	-0.004640173
239	0x3c2c66cf	0.010522558
240	0x3b13d55f	0.00225576
241	0xbc8c9bcb	-0.017164132
242	0x3da72090	0.08160508
243	0x3da49db6	0.080378935
244	0x3d6b739a	0.057483293
245	0x3d050ba5	0.03248181
246	0xbc159afd	-0.00913119
247	0x3e168e2a	0.14702669
248	0x3e8beccc	0.273291
249	0x3ed5b340	0.4173832
250	0x3d184bc8	0.037181646
251	0xbce8214b	-0.028336188
252	0x3cc6bfac	0.024261318
253	0xbd383c6a	-0.04497949
254	0x3d59fe30	0.053220928
255	0x3c4582b5	0.012055089

conv3.bias f4 [64]
0	0x3e8ea287	0.27858374
1	0x3e1b9a30	0.15195537
2	0x3eb6146b	0.35562453
3	0x3e55025a	0.20801678
4	0x3e68a993	0.22720937
5	0x3ea81f47	0.32836363
6	0x3ea710f0	0.3263011
7	0x3f004805	0.50109893
8	0x3e74191e	0.23837706
9	0x3eb599b3	0.35468826
10	0x3e54cabf	0.20780466
11	0x3ee6c95d	0.45075503
12	0x3ed108f9	0.40827158
13	0x3e431cb3	0.19053917
14	0x3e435be7	0.19078027
15	0x3ea873f7	0.32900974
16	0x3e84b556	0.25919598
17	0x3efd50d2	0.49475724
18	0x3eb3d464	0.3512298
19	0x3eb68378	0.35647178
20	0x3ecdfa04	0.4022981
21	0x3dea3e61	0.11437679
22	0x3e7a5fd4	0.24450618
23	0x3f01ca7f	0.5069961
24	0x3e8f7009	0.28015164
25	0x3eba22d9	0.36354712
26	0x3e8d8480	0.27640152
27	0x3e8d76c4	0.27629673
28	0x3e65a01c	0.22424358
29	0x3e631a79	0.22178067
30	0x3e94bf88	0.29052377
31	0x3e853b46	0.26021785
32	0x3e489227	0.19587003
33	0x3e7d8389	0.24757208
34	0x3e5eb64f	0.21749233
35	0x3e18a055	0.14904912
36	0x3e85b949	0.26117924
37	0x3e5b871d	0.2143826
38	0x3dad6931	0.08467329
39	0x3f158498	0.58405447
40	0x3e9d0ba6	0.3067295
41	0x3ea2288a	0.31671554
42	0x3e61f3a8	0.22065604
43	0x3ea6f4e6	0.32608718
44	0x3e863a26	0.2621624
45	0x3f0f4c93	0.5597622
46	0x3e5079c1	0.20358945
47	0x3e844924	0.25837052
48	0x3eafc2f5	0.34328428
49	0x3e9ba644	0.30400288
50	0x3e848506	0.2588274
51	0x3e9fd819	0.31219557
52	0x3e738703	0.23781972
53	0x3e56b793	0.20968466
54	0x3e176f16	0.1478847
55	0x3e578a9b	0.21048968
56	0x3e8b0925	0.27155414
57	0x3e8a5d20	0.27024174
58	0x3ea84427	0.32864496
59	0x3f2037ca	0.6258513
60	0x3e2fabe8	0.17155421
61	0x3ebce6b8	0.36894774
62	0x3e26101a	0.1621708
63	0x3e97d9f7	0.2965848

classifier.weight f4 [3, 64, 1]
0	0x3cf49e52	0.02986065
1	0xbde565e7	-0.11201077
2	0x3d17d062	0.037063964
3	0x3d6a34e8	0.05717936
4	0x3db88e5e	0.090115294
5	0x3dca1d95	0.098689236
6	0xbd7da111	-0.061921183
7	0x3dd5b106	0.10434155
8	0x3c329099	0.010898733
9	0x3e05509e	0.13019034
10	0xbd95b941	-0.07310725
11	0xbbffa673	-0.0078018247
12	0x3d6e35e6	0.05815687
13	0xbdee472c	-0.11634669
14	0x3d2c4435	0.042057235
15	0x3a39f8f6	0.0007094288
16	0x3e30afd3	0.17254572
17	0x3dec362e	0.115337715
18	0xbdf8307d	-0.121186234
19	0x3d91ad9c	0.071131915
20	0x3cfad6b8	0.030619964
21	0xbd3f3a36	-0.046686374
22	0x3cdb58c0	0.026775718
23	0x3cb8e01e	0.022567805
24	0xbd4249ce	-0.047433667
25	0x3e0516d1	0.12996985
26	0xbcad0155	-0.0211188
27	0xbdb9b521	-0.09067751
28	0x3d11f166	0.035630606
29	0xbda14de3	-0.07876184
30	0xbb37b0f4	-0.0028029056
31	0xbd15c969	-0.036569033
32	0xbe18d05c	-0.14923233
33	0xbd61d49f	-0.055134412
34	0xbdb49568	-0.088175595
35	0x3d51af6a	0.05119268
36	0x3bfcab14	0.007710824
37	0xbd577b58	-0.052607864
38	0xbe06b7d5	-0.13156064
39	0x3ddcf9f3	0.107898615
40	0x3ca22a61	0.019795598
41	0xbc9d6778	-0.019214377
42	0xbd43bd58	-0.047787994
43	0x3cdd5308	0.027017131
44	0x3debd223	0.1151469
45	0x3da552ad	0.0807241
46	0x3d6ab710	0.05730349
47	0xbd09c19c	-0.033631906
48	0xbd99d17c	-0.07510659
49	0x3dddc21c	0.10828039
50	0x3d02aa05	0.031900425
51	0xbd8c611a	-0.06854458
52	0xbdc0d285	-0.094151534
53	0xbd56a11d	-0.052399743
54	0xbda1c127	-0.07898169
55	0xbdacfff8	-0.0844726
56	0xbd1fabaf	-0.03898209
57	0xbdd0f79f	-0.1020348
58	0x3df322f1	0.11871899
59	0x3caa42f0	0.020783871
60	0xbd18dc39	-0.037319396
61	0x3e2a2b3f	0.1661806
62	0x3c75774b	0.014982055
63	0x3e10ccbb	0.14140598
64	0xbc4d59a7	-0.012533582
65	0x3c93ddb1	0.018050047
66	0x3c60e893	0.013727325
67	0xbd8a224b	-0.06744822
68	0xbcc1dae1	-0.02366394
69	0xbdbb668d	-0.091504194
70	0x3d00b790	0.03142506
71	0x3d7689e6	0.060190104
72	0x3df29843	0.11845448
73	0xbd8f89f4	-0.07008734
74	0x3d48c092	0.049011774
75	0xbd9144cc	-0.070932
76	0x3d62e7e0	0.055396914
77	0xbc959bbf	-0.018262742
78	0xbdbb7371	-0.09152878
79	0xbb41bdba	-0.0029562549
80	0x3cc8cf3f	0.024512885
81	0x3dc78363	0.09741857
82	0xbdab76e2	-0.083722845
83	0xbd984393	-0.07434764
84	0xbdccb915	-0.09996239
85	0x3dd72f91	0.105071194
86	0xbd925612	-0.07145323
87	0x3cde401b	0.027130177
88	0x3b953216	0.00455309
89	0x3ce6fb76	0.028196078
90	0xbdffd599	-0.124919124
91	0xbd757063	-0.059921633
92	0xbd4ffbdd	-0.050777305
93	0xbd9e7ac5	-0.0773826
94	0xbd9e6ef7	-0.077360086
95	0x3d8e0863	0.069351934
96	0xbd861087	-0.06546121
97	0xbd468a73	-0.04847188
98	0xbbbbf080	-0.005735457
99	0xbe080901	-0.13284685
100	0x3dc87dfc	0.097896546
101	0x3db87d51	0.09008277
102	0x3cd2d1cf	0.02573481
103	0x3dc1d199	0.09463806
104	0xbdb54c5a	-0.088524535
105	0x3da3e252	0.080021515
106	0x3db437a3	0.08799674
107	0xbd60d94f	-0.05489474
108	0xbd96e2ca	-0.07367475
109	0x3d86894f	0.06569158
110	0xbd9f4439	-0.07776684
111	0xbde02f4d	-0.10946522
112	0xbd4ce4fe	-0.05002307
113	0x3c93a719	0.018024014
114	0xbe0665b0	-0.13124728
115	0xbd5b4b61	-0.053538684
116	0x3b4044e5	0.002933794
117	0x3ccbb64f	0.024867205
118	0x3cef6af3	0.029225802
119	0x3cb5d315	0.022195378
120	0x3d2b7e9e	0.0418688
121	0xbce672bb	-0.02813088
122	0xbcd09568	-0.025461867
123	0x3c93f1f4	0.018059708
124	0x3d3dc5de	0.04633128
125	0x3cf86380	0.030320883
126	0x3dc19e54	0.09454027
127	0xbd4ed09a	-0.050491907
128	0x3d5bc80b	0.053657573
129	0x3d573465	0.0525402
130	0x3dc4c529	0.09607918
131	0x3d6b47b1	0.057441417
132	0x3daa8d82	0.08327772
133	0x3a924c6d	0.0011161693
134	0xbd6e41bf	-0.05816817
135	0xbd6bc3b3	-0.05755968
136	0x3d0ae9dc	0.033914432
137	0xbd562488	-0.052280933
138	0xbb9e0f07	-0.0048235687
139	0xbdf6557e	-0.12028025
140	0xbd690f25	-0.05689921
141	0xbc855913	-0.016277825
142	0x3cf9251e	0.030413207
143	0x3d537502	0.05162526
144	0x3d9a9f57	0.07549923
145	0xbccce32f	-0.025010673
146	0xbc92e563	-0.017931646
147	0xbd1f1996	-0.03884276
148	0xbdb9ee01	-0.09078599
149	0x3dc30b33	0.095236205
150	0x3cc2e664	0.0237915
151	0xbd5b9650	-0.053610146
152	0x3d6d9c16	0.058010183
153	0x3d695e36	0.056974612
154	0xbd04c2b0	-0.03241223
155	0x3a299623	0.00064692105
156	0x3d056eb0	0.032576263
157	0x3cb682cb	0.022279164
158	0xbb205775	-0.002446619
159	0xbca8dd90	-0.020613462
160	0xbd8d10e3	-0.068879865
161	0x3bf3b439	0.0074372557
162	0xbc09335e	-0.008374063
163	0x3da359dd	0.079761244
164	0x3cdc2672	0.0268738
165	0xbc6b87e5	-0.0143756615
166	0xbb730f2a	-0.0037087896
167	0xbcbb7827	-0.022884442
168	0xbd595a8b	-0.053064864
169	0xbc4ccf18	-0.012500547
170	0x3da80661	0.08204342
171	0x3d9d47cd	0.076797105
172	0xbd40c06d	-0.04705851
173	0xbd4d5e98	-0.05013904
174	0x3d48bb1e	0.049006574
175	0xbd0adbcf	-0.033901032
176	0x3cdeadd4	0.027182497
177	0x3dd4e4ec	0.10395226
178	0xbd15ffe1	-0.03662098
179	0x3bb14bfb	0.005410669
180	0xbdac5855	-0.084152855
181	0x3ce36f5b	0.02776306
182	0x3ccae788	0.024768606
183	0x3d08e332	0.033419795
184	0x3d1d38ec	0.038384363
185	0xbc13dd72	-0.009024965
186	0x3c6a62dc	0.0143057965
187	0xbdc3ad4a	-0.09554537
188	0x3d42074f	0.04737025
189	0x3d80502d	0.06265292
190	0x3dc332d0	0.09531176
191	0xbd3813d8	-0.0449408

classifier.bias f4 [3]
0	0x3db1d0e0	0.08682418
1	0xbde0d3eb	-0.1097792
2	0x3d976b72	0.073935404
